基于逻辑回归/results/139_logistic_net.pkl (torch, 2367 bytes, 1 tensors)

layer.0.weight f4 [1, 300]
1.2839913 1.2753557 -2.618316 3.3463094 -1.5758455 -4.354416 9.222954 2.7806072
-1.8328657 -1.9941151 3.506054 -1.6896844 -1.290367 2.3849208 2.6293166 -1.4614027
0.12872738 3.3762457 1.0919315 1.2437154 -0.58200395 -3.431178 -6.921657 0.73092693
-3.731484 -1.9185379 0.02577728 2.1802943 2.0239425 -2.1252077 0.07592308 4.092016
7.446177 2.3533072 -1.3830249 0.9194381 7.709355 3.0445225 -2.7859762 -2.0660548
-6.451642 0.36625957 -1.5406053 -1.6241711 -3.3822622 -0.07816602 2.801448 11.602753
-0.22758248 0.56037414 0.5441743 -5.153906 -7.468181 -2.812251 -5.3180437 3.3171759
-1.3856955 -7.226007 -1.5737636 -1.4361197 -3.2314587 0.9032978 -0.32480636 -3.0718462
2.5407097 -2.655754 4.058561 1.4699453 2.7999527 -6.018023 3.1200123 -8.6527405
-6.064036 -1.9820318 5.0558715 -1.6526524 -0.24106482 -0.25360364 -0.5262195 -1.2459102
3.6353881 -9.126914 1.1930821 -0.83721006 -0.47875905 6.034828 -0.5658183 0.4537537
4.9646263 -2.7516391 3.0855305 7.7853265 1.2520198 2.9342566 6.1015673 2.4360356
-6.647288 1.0844288 3.4591196 7.5271177 -1.0281352 -3.811889 -1.8040018 7.2369947
11.307389 2.3531444 -6.604471 -4.9110184 0.611473 -3.9450192 5.1767993 3.8539038
0.88347137 6.8314505 2.1927216 -2.352019 7.4162545 2.4508717 3.0762317 0.184621
-8.058443 4.4145503 3.8683617 0.38082534 0.9155581 0.2218538 -6.133338 4.1675787
3.5475879 4.340042 2.4177341 0.33431032 2.1897316 -5.9781275 0.3125537 1.115825
4.9625907 -2.298978 -2.9307673 2.4990427 4.692211 -2.391891 0.36901635 6.532102
-3.9922009 7.3492956 4.792012 -3.676622 6.628591 4.358631 -4.7970257 5.766343
5.724642 -4.393444 -7.4328003 -2.3264654 -0.06044967 -7.1876383 0.61072195 -1.7680563
-6.13904 0.41994905 -0.18879506 -2.5697458 3.7657702 -2.664724 -3.6477494 -4.7505946
4.0270796 4.7883334 1.0364393 6.958411 -3.8019977 1.6362932 -2.273718 0.56054294
-3.5377467 4.920554 -1.8718003 4.844977 6.7338266 6.984155 0.3142072 -2.613344
-5.27569 -1.1027678 -2.5400162 0.19911924 2.5180962 4.0433097 -1.328087 -5.062564
5.0981297 4.1497626 -0.5653616 4.3865285 -2.9006855 1.4005555 3.0514178 -3.7572355
-7.6804404 -1.7539818 1.6336462 3.7434084 -2.419536 5.105135 2.9087417 10.922441
2.453607 3.0522318 -1.2985685 2.373332 -8.376276 -9.613939 -0.099113196 -1.2568761
4.559179 4.2743416 4.0827265 -1.0513647 -1.160779 7.105186 -6.311938 0.9621912
0.70568967 2.6160102 -1.1783149 2.1844049 -3.897831 -1.503523 5.2212434 -4.4729204
-4.8469186 -0.21539679 7.1998677 -0.7151655 -3.8358674 -7.0729184 -8.49153 -4.06785
1.8885366 1.8028839 -0.7144283 -7.049402 -5.2757215 -3.0312722 4.134278 1.4762971
6.767686 2.3629339 -3.9851382 7.1907873 1.1671958 -0.18589032 -0.7111931 0.67272276
00000000: d459 a43f db3e a33f 7d92 27c0 ef29 5640
00000010: 4eb5 c9bf 6057 8bc0 3891 1341 78f5 3140
00000020: 589b eabf 2a3f ffbf 3063 6040 9447 d8bf
00000030: bf2a a5bf 8ba2 1840 b946 2840 3e0f bbbf
00000040: 1cd1 033e 6914 5840 69c4 8b3f 1132 9f3f
00000050: 36fe 14bf 6c98 5bc0 377e ddc0 071e 3b3f
00000060: a2d0 6ec0 a692 f5bf e02a d33c f189 0b40
00000070: 4688 0140 6703 08c0 8f7d 9b3d ccf1 8240
00000080: 1547 ee40 969c 1640 f606 b1bf 4c60 6b3f
00000090: 09b3 f640 75d9 4240 6f4d 32c0 3e3a 04c0
000000a0: da73 cec0 6086 bb3e 8e32 c5bf d7e4 cfbf
000000b0: fc76 58c0 8215 a0bd ed4a 3340 e0a4 3941
000000c0: 620b 69be ae74 0f3f 024f 0b3f ccec a4c0
000000d0: 57fb eec0 ecfb 33c0 6a2d aac0 9c4c 5440
000000e0: 785e b1bf 733b e7c0 1671 c9bf c5d2 b7bf
000000f0: 38d0 4ec0 863e 673f 054d a6be 2199 44c0
00000100: fd9a 2240 e0f7 29c0 bbdf 8140 2b27 bc3f
00000110: 6d32 3340 a593 c0c0 48ae 4740 a071 0ac1
00000120: 950c c2c0 38b3 fdbf b3c9 a140 1d8a d3bf
00000130: b2d9 76be 56d8 81be 52b6 06bf fc79 9fbf
00000140: 33aa 6840 d707 12c1 eab6 983f 6653 56bf
00000150: e81f f5be 501d c140 78d9 10bf 6852 e83e
00000160: 38de 9e40 db1a 30c0 5579 4540 6521 f940
00000170: 2f42 a03f dcca 3b40 0a40 c340 02e8 1b40
00000180: 95b6 d4c0 90ce 8a3f 3762 5d40 26de f040
00000190: ef99 83bf fdf5 73c0 88e9 e6bf 7695 e740
000001a0: 11eb 3441 eb99 1640 d457 d3c0 1027 9dc0
000001b0: 7f89 1c3f 327b 7cc0 57a8 a540 5ca6 7640
000001c0: 2e2b 623f 3e9b da40 8d55 0c40 7b87 16c0
000001d0: f551 ed40 15db 1c40 fbe0 4440 4a0d 3d3e
000001e0: 62ef 00c1 ff43 8d40 3d93 7740 8afb c23e
000001f0: 0462 6a3f a42d 633e 4e44 c4c0 ce5c 8540
00000200: ae0b 6340 a0e1 8a40 28bc 1a40 b92a ab3e
00000210: 9024 0c40 d24c bfc0 0a07 a03e 5bd3 8e3f
00000220: 8bcd 9e40 7522 13c0 b191 3bc0 51f0 1f40
00000230: 9826 9640 be14 19c0 b6ef bc3e fb06 d140
00000240: 3880 7fc0 6e2d eb40 2a58 9940 c64d 6bc0
00000250: 6b1d d440 e879 8b40 3c81 99c0 e285 b840
00000260: 4430 b740 1897 8cc0 80d9 edc0 cfe4 14c0
00000270: 139a 77bd 2201 e6c0 4658 1c3f ab4f e2bf
00000280: 0473 c4c0 9003 d73e 7e53 41be b776 24c0
00000290: 6102 7140 d78a 2ac0 ba74 69c0 df04 98c0
000002a0: d6dd 8040 073a 9940 0baa 843f 4eab de40
000002b0: ee53 73c0 0e72 d13f 9984 11c0 be7f 0f3f
000002c0: 716a 62c0 2e75 9d40 2797 efbf 0d0a 9b40
000002d0: 827b d740 337e df40 c4df a03e 0741 27c0
000002e0: 74d2 a8c0 7f27 8dbf a08f 22c0 eae5 4b3e
000002f0: 7d28 2140 cb62 8140 c1fe a9bf 8600 a2c0
00000300: e123 a340 dbca 8440 8abb 10bf 715e 8c40
00000310: d5a4 39c0 6745 b33f 6e4a 4340 8c76 70c0
00000320: 2bc6 f5c0 7a82 e0bf 521b d13f 0194 6f40
00000330: aed9 1ac0 445d a340 d328 3a40 51c2 2e41
00000340: e607 1d40 c457 4340 7e37 a6bf ace4 1740
00000350: 3a05 06c1 b2d2 19c1 dcfb cabd 51e1 a0bf
00000360: cbe4 9140 68c7 8840 b2a5 8240 1e93 86bf
00000370: 6894 94bf af5d e340 65fb c9c0 2a52 763f
00000380: 14a8 343f b66c 2740 06d3 96bf 4acd 0b40
00000390: 1076 79c0 7173 c0bf 6d14 a740 2a22 8fc0
000003a0: f519 9bc0 fa90 5cbe 5165 e640 1615 37bf
000003b0: da7e 75c0 5955 e2c0 4fdd 07c1 d42b 82c0
000003c0: 91bb f13f e6c4 e63f c6e4 36bf b494 e1c0
000003d0: b6d2 a8c0 5d00 42c0 014c 8440 4ef7 bc3f
000003e0: e290 d840 4f3a 1740 810c 7fc0 ee1a e640
000003f0: ac66 953f 085a 3ebe c010 36bf 8f37 2c3f
